AAI/Project/model.pth (torch, 539816 bytes, 56 tensors)

module.conv1.weight f4 [8, 1, 5, 5]
0	0xbd23b9ec	-0.03997223
1	0x3e0ed0e5	0.13946874
2	0xbdfd245f	-0.12360453
3	0x3ed44762	0.4146071
4	0xbe1ed7e3	-0.15512042
5	0x3ed892b7	0.42299435
6	0x3e9f5faa	0.31127673
7	0xbdfdc583	-0.12391188
8	0xbe95c2ab	-0.29250082
9	0x3efc21b9	0.49244478
10	0xbef76a94	-0.483235
11	0xbe8d1041	-0.27551463
12	0x3e1bb683	0.15206341
13	0xbe86a911	-0.26300862
14	0x3eccba5d	0.39985934
15	0xbd17b375	-0.037036378
16	0xbe516802	-0.20449832
17	0x3de6418b	0.1124297
18	0xbd850f6e	-0.064970836
19	0xbd89b0e2	-0.06723191
20	0xbe97ec8d	-0.2967266
21	0xbe666709	-0.22500242
22	0xbdc6fc9e	-0.09716152
23	0xbeae3051	-0.34021237
24	0xbe573d5b	-0.21019499
25	0x3f12916f	0.57253164
26	0x3db47ea4	0.08813217
27	0xbd879dce	-0.06621896
28	0x3ede7287	0.43446752
29	0x3e1d8c34	0.15385514
30	0xbe12a84a	-0.1432201
31	0xbe298169	-0.16553272
32	0xbe933001	-0.28747562
33	0xbe2447e3	-0.16043048
34	0xbe5a3224	-0.2130819
35	0xbf29e9fc	-0.66372657
36	0xbe33582f	-0.17514108
37	0xbe6522f6	-0.22376618
38	0xbf12198c	-0.5707023
39	0xbe0ca892	-0.1373618
40	0x3e999686	0.29997653
41	0xbeed87f4	-0.46392787
42	0xbed0a4e5	-0.40750805
43	0x3e268cfd	0.1626472
44	0x3e953af3	0.29146537
45	0x3eca5b8d	0.39522973
46	0xbebcfc9c	-0.36911476
47	0xbef7aabc	-0.48372447
48	0x3e2c29a8	0.16812766
49	0x3ef8c3dd	0.48586932
50	0xbd4a1741	-0.049338583
51	0xbdf870ed	-0.12130914
52	0x3de3867a	0.11109634
53	0xbf38e667	-0.72226566
54	0xbf0d1334	-0.55107427
55	0x3e7811dc	0.24225563
56	0xbef1281b	-0.4710091
57	0x3e43f9fd	0.19138332
58	0xbde2fcbd	-0.11083362
59	0x3e78dfa1	0.24304058
60	0x3e61b915	0.2204326
61	0x3f027de9	0.50973374
62	0xbe815b47	-0.25264952
63	0x3f1c07c3	0.60949343
64	0x3e5f31ea	0.21796384
65	0x3ed97fd2	0.42480332
66	0x3e6943d4	0.2277978
67	0x3ea39cbf	0.31955525
68	0xbe904b27	-0.28182337
69	0xbd23c9d8	-0.039987415
70	0xbea63f9a	-0.324704
71	0xbefe0105	-0.49610153
72	0xbe96da51	-0.29463437
73	0x3e94fba0	0.29098225
74	0x3e3bef41	0.18352987
75	0x3eddcde7	0.43321154
76	0xbde96758	-0.113966644
77	0x3e90e8c6	0.28302592
78	0x3e6eeda8	0.23332846
79	0xbe60b608	-0.2194444
80	0xbd1c013a	-0.038087107
81	0x3e1bb8ca	0.1520721
82	0x3e9e3a32	0.30903774
83	0x3ea59e8c	0.32347524
84	0x3e32d502	0.17464069
85	0x3e0bc329	0.13648666
86	0xbd36a636	-0.044592105
87	0x3dfd77c0	0.12376356
88	0xbd7b4fcc	-0.061355397
89	0x3e970576	0.29496354
90	0xbecd8e68	-0.4014771
91	0x3f0b8600	0.5450134
92	0xbd3c0096	-0.045898996
93	0xbe535d37	-0.20641027
94	0x3edf273d	0.43584624
95	0xbd6c9aa5	-0.057764668
96	0x3e945035	0.28967443
97	0xbe990b32	-0.29891354
98	0x3eaa88d8	0.33307528
99	0x3e66adc8	0.2252723
100	0xbe9231a5	-0.285535
101	0xbcc4e080	-0.024032831
102	0x3e92ab40	0.28646278
103	0xbe56254a	-0.20912662
104	0x3f3725b3	0.715419
105	0xbe1f0eeb	-0.15533035
106	0x3ec8c625	0.39213672
107	0x3e9fce75	0.31212202
108	0x3f009657	0.502294
109	0x3e33fd3b	0.17577069
110	0xbeb46243	-0.35231218
111	0x3dd89627	0.10575514
112	0x3e66660a	0.22499862
113	0xbefcef5a	-0.4940136
114	0xbcaf50ca	-0.021400828
115	0xbd9ee4f3	-0.07758512
116	0xbe817e7b	-0.2529181
117	0xbeafdeca	-0.34349662
118	0x3d486e52	0.048933335
119	0xbe9856b0	-0.29753637
120	0xbe1a111d	-0.1504559
121	0x3e0d2007	0.13781749
122	0x3cea29a3	0.028584307
123	0x3e796d61	0.24358131
124	0xbef2f436	-0.47451943
125	0x3e6c63ed	0.23084994
126	0x3e990ccd	0.2989258
127	0x3ea5bbc9	0.3236983
128	0x3f04eedf	0.5192699
129	0x3e2f99eb	0.17148559
130	0xbee889ae	-0.4541754
131	0x3dbeed47	0.09322601
132	0xbee786d1	-0.45220044
133	0x3f03fc14	0.51556516
134	0x3ecb3e23	0.39695844
135	0x3e27d0a7	0.16388188
136	0x3e42d181	0.19025232
137	0xbeaf3029	-0.3421643
138	0x3ebb54ea	0.36588222
139	0xbc8232b1	-0.015893312
140	0xbeca634a	-0.39528877
141	0xbe26e2dd	-0.16297479
142	0x3e2163b1	0.15760686
143	0xbe670c2b	-0.22563235
144	0xbe0baa63	-0.13639216
145	0x3dccf41d	0.100074984
146	0xbe05f3e6	-0.13081321
147	0xbd989773	-0.07450762
148	0xbe2feeef	-0.1718099
149	0x3e1eec2a	0.15519777
150	0x3df02546	0.11725859
151	0xbd0da588	-0.03458169
152	0xbc35aa62	-0.011087986
153	0xbe006361	-0.1253791
154	0x3ea2d21d	0.3180093
155	0x3e83834d	0.25686112
156	0x3e93aafc	0.28841388
157	0x3d947b9c	0.07250139
158	0xbea31b54	-0.31856787
159	0x3d8494c3	0.064736865
160	0xbea694b8	-0.32535338
161	0x3e34c02f	0.17651437
162	0x3effb9e5	0.49946514
163	0x3f048819	0.5177017
164	0x3edf9509	0.43668392
165	0x3ebfb994	0.37446272
166	0x3ef7ee1b	0.48423848
167	0x3f24e3bf	0.6441001
168	0xbe6a5e7e	-0.22887608
169	0xbeb6ee16	-0.3572852
170	0x3dce21b6	0.100650236
171	0xbe912dfb	-0.28355393
172	0x3d637ddd	0.055539954
173	0xbe2b5fe3	-0.16735797
174	0x3ed8794b	0.4228004
175	0xbe12c346	-0.14332303
176	0x3ef40ad8	0.47664523
177	0xbeb8c0ea	-0.36084682
178	0xbd32d372	-0.04365868
179	0x3da9e02f	0.08294713
180	0x3e076dd1	0.13225485
181	0xbde03cec	-0.1094912
182	0x3e7f9d49	0.24962343
183	0xbd9deb42	-0.077108875
184	0xbd4edc13	-0.050502848
185	0xbd5c74f6	-0.05382248
186	0xbe14da68	-0.1453644
187	0xbe0f57a8	-0.13998282
188	0xbea1a36a	-0.31569988
189	0x3b789ff1	0.003793713
190	0xbe03ab65	-0.1285835
191	0x3ddfe31c	0.109319896
192	0xbdd14826	-0.10218839
193	0x3ed0bffd	0.40771475
194	0xbe98ce3a	-0.29844838
195	0xbea2b315	-0.31777254
196	0x3d4311f8	0.04762456
197	0xbe42b66f	-0.19014905
198	0x3ebc1927	0.3673794
199	0xbe9301b6	-0.28712243

module.conv1.bias f4 [8]
0	0x3ccc9880	0.024975061
1	0x3bf0c192	0.007347294
2	0x3d8ad071	0.06778038
3	0xbc127497	-0.00893893
4	0x3ccac333	0.024751281
5	0x3d908385	0.07056335
6	0x3d792e12	0.06083495
7	0xbe17dc88	-0.1483022

module.bn1.weight f4 [8]
0	0x3f8c44e2	1.0958521
1	0x3f896e76	1.0736835
2	0x3f9cf45c	1.2262073
3	0x3f88e45b	1.0694689
4	0x3f8c4587	1.0958718
5	0x3f8985ff	1.0744017
6	0x3f86f673	1.054396
7	0x3f84f7fe	1.0388181

module.bn1.bias f4 [8]
0	0xbd0ab5ce	-0.03386479
1	0xbd0ecb64	-0.034861937
2	0xbd16da6c	-0.036829397
3	0xbcbb41bc	-0.022858493
4	0xbd18e212	-0.037324972
5	0x3d438dbe	0.047742598
6	0x3d0d990e	0.034569792
7	0xbd5af97b	-0.05346058

module.bn1.running_mean f4 [8]
0	0x3e98f537	0.29874584
1	0x3f3ad9d7	0.7298865
2	0x3ea969bc	0.3308848
3	0x3f4f55e9	0.80990463
4	0x3e8288e1	0.25495055
5	0x3e937552	0.28800446
6	0x3f42dc92	0.76117814
7	0x3e519b46	0.20469388

module.bn1.running_var f4 [8]
0	0x3df43a19	0.11925144
1	0x3f287b1b	0.65812844
2	0x3e190639	0.1494378
3	0x3f912e07	1.1342171
4	0x3e1bd07e	0.15216252
5	0x3e8d5e50	0.27611017
6	0x3f827cba	1.0194314
7	0x3d6922fd	0.056918133

module.conv2.weight f4 [16, 8, 3, 3]
0	0xbe83ef32	-0.2576843
1	0xbdfac095	-0.12243763
2	0xbd5bd103	-0.053666126
3	0xbda05873	-0.0782937
4	0xbeec4f5a	-0.4615429
5	0xbca6940e	-0.02033427
6	0x3cb33652	0.021876488
7	0x3e5b7c61	0.21434166
8	0x3e4bd0b2	0.1990383
9	0xbe5c8adf	-0.2153735
10	0xbdcd2cab	-0.10018285
11	0xbcb1d006	-0.021705639
12	0xbd0113a8	-0.031512886
13	0xbe9eddf7	-0.3102872
14	0xbf0d1fb9	-0.5512653
15	0x3e496e56	0.19670996
16	0x3d3e463c	0.0464537
17	0x3e69d61a	0.2283558
18	0x3e1d6643	0.15371041
19	0xbc639637	-0.0138907945
20	0xbcb08dac	-0.02155193
21	0x3e127009	0.1430055
22	0x3e2229ca	0.15836254
23	0x3c0a043f	0.008423864
24	0xbdef2858	-0.11677617
25	0x3d920f1c	0.07131788
26	0xbf02538b	-0.50908726
27	0xbcd07337	-0.025445564
28	0x3e986ee8	0.29772115
29	0xbea86de3	-0.32896337
30	0x3e593b32	0.21213987
31	0x3c7a5f69	0.015281537
32	0x3de1ac49	0.11019189
33	0xbed457db	-0.41473278
34	0xbdb83683	-0.08994772
35	0x3deadf0a	0.114683226
36	0xbed0d9b2	-0.40791088
37	0xbec47eca	-0.38377982
38	0xbdaaf5fc	-0.08347699
39	0xbcf3558c	-0.029703878
40	0x3dae9132	0.085237876
41	0xbbfeeab4	-0.0077794436
42	0x3e5ac6cc	0.21364897
43	0x3e3dcf09	0.18536009
44	0x3e257b64	0.16160351
45	0xbe575171	-0.21027161
46	0xbea671d6	-0.32508725
47	0xbd9427ca	-0.07234152
48	0xbcbaf614	-0.022822417
49	0x3eb1dd6b	0.3473924
50	0x3ea540b6	0.32275933
51	0x3f0648eb	0.52455014
52	0x3e833679	0.25627497
53	0x3e4d1efb	0.2003135
54	0x3e89bab0	0.26900244
55	0x3dfa055d	0.12208054
56	0x3cf68717	0.030093713
57	0x3e2bf202	0.16791537
58	0xbe4451a9	-0.19171776
59	0xbe0c3480	-0.13691902
60	0xbdcd8a66	-0.10036163
61	0x3cbc05e3	0.022952026
62	0xbddc394d	-0.10753117
63	0xbd582149	-0.05276612
64	0xbe96fa7d	-0.29487982
65	0xbe42ddb3	-0.19029884
66	0xbe2d0e77	-0.16900049
67	0x3daa6460	0.08319926
68	0xbd765d1d	-0.060147393
69	0xbc5c9450	-0.013463095
70	0xbea7d1c2	-0.3277722
71	0x3e477cfc	0.19481272
72	0xbe61806a	-0.22021642
73	0xbe551be9	-0.20811428
74	0x3e12bf7a	0.14330855
75	0x3e9cee0a	0.3065036
76	0x3e9bbaea	0.30416042
77	0x3e39b4b9	0.18135346
78	0xbec6f9e9	-0.3886254
79	0x3e87f3f2	0.26553303
80	0x3d279dbc	0.04092191
81	0x3ea9d9fa	0.33174115
82	0x3ee46ed7	0.44615814
83	0x3cc79161	0.024361314
84	0xbdbb7908	-0.09153944
85	0x3eec503c	0.46154964
86	0xbda7361a	-0.08164616
87	0x3dc89021	0.097931154
88	0x3d3acc3c	0.04560493
89	0xbe24a630	-0.1607902
90	0xbe1ed6ee	-0.15511677
91	0xbd4fe3d7	-0.050754394
92	0xbe6568a8	-0.22403204
93	0x3d0677af	0.032828983
94	0x3eaae9a0	0.33381367
95	0x3ea74a68	0.32673955
96	0xbe8395a3	-0.257001
97	0x3c7bcd56	0.01536878
98	0x3e12b412	0.14326504
99	0x3eb85aa4	0.36006653
100	0x3cc8ad13	0.02449659
101	0x3f00103d	0.5002478
102	0x3dee4651	0.116345055
103	0x3e4cdcd4	0.20006114
104	0xbde6a992	-0.11262812
105	0xbbbd95ec	-0.0057856943
106	0xbe408819	-0.18801917
107	0xbe173562	-0.14766458
108	0xbe1b449f	-0.15162896
109	0xbdf4e716	-0.11958139
110	0x3e46d933	0.19418792
111	0x3e775388	0.24152958
112	0x3d75541f	0.059894677
113	0x3d085c32	0.03329105
114	0x3d7a70ac	0.06114261
115	0xbadc0540	-0.0016786233
116	0xbe4808d6	-0.1953462
117	0x3e44b881	0.19211008
118	0xbe86a4b9	-0.26297548
119	0x3e891e53	0.26780948
120	0x3d83b96c	0.06431851
121	0xbe359268	-0.17731631
122	0xbda620f4	-0.08111754
123	0x3c8a6b19	0.016896771
124	0xbdcb850c	-0.09937486
125	0x3e310edd	0.17290826
126	0xbd4347e8	-0.047675997
127	0xbe29a07b	-0.16565125
128	0xbe1ac63e	-0.15114686
129	0x3e39e16e	0.18152401
130	0xbe166279	-0.14686002
131	0xbc4c62c3	-0.0124747185
132	0x3d9b92e0	0.075963736
133	0xbdb08028	-0.08618194
134	0xbd0eb224	-0.034837857
135	0x3dac2589	0.08405597
136	0x3c7d1f47	0.015449352
137	0xbd15a83e	-0.0365374
138	0xbe399c5f	-0.18126057
139	0xbe3f0308	-0.186535
140	0xbd209507	-0.039204624
141	0xbdfedecb	-0.12444838
142	0xbea192ab	-0.3155721
143	0x3e01df07	0.12682734
144	0xbd20f453	-0.039295506
145	0xbe80011f	-0.25000855
146	0xbe90382c	-0.28167856
147	0xbda2e036	-0.07952921
148	0x3c8a9079	0.016914593
149	0xbe901fc7	-0.28149244
150	0x3e9c38b3	0.30512008
151	0xbe8dd05c	-0.27698028
152	0xbd99a3eb	-0.07501968
153	0xbdb7a55b	-0.08967086
154	0xbdf0da79	-0.1176042
155	0xbe6d53ec	-0.23176545
156	0xbd77e772	-0.060523458
157	0xbea6d650	-0.32585382
158	0xbd847401	-0.064674385
159	0xbe1d1d06	-0.15343103
160	0x3dd0ea24	0.10200909
161	0xbee2d335	-0.44301763
162	0x3c633660	0.0138679445
163	0xbe27cf9c	-0.1638779
164	0xbec0a4ff	-0.37625882
165	0x3e9f2e31	0.3108993
166	0x3e5c179c	0.21493381
167	0x3e55e5b6	0.20888409
168	0x3e094c9a	0.13408127
169	0x3dc3f2cf	0.095677964
170	0xbe53980d	-0.20663472
171	0x3dfc0509	0.12305648
172	0xbd7676e0	-0.06017196
173	0x3df434e4	0.119241506
174	0xbe65df54	-0.22448474
175	0x3d6f35f0	0.05840105
176	0xbc90ab9f	-0.01765996
177	0xbe2f55de	-0.171226
178	0xbd8a2cff	-0.067468636
179	0x3e25a0ab	0.16174571
180	0xbe109868	-0.14120638
181	0xbd0a012d	-0.033692528
182	0xbe919cea	-0.28440028
183	0xbe93bd79	-0.28855494
184	0xbedb2085	-0.42798248
185	0xbf0130f2	-0.5046531
186	0xbd204a0e	-0.039133124
187	0x3c6eb467	0.014569378
188	0x3e465760	0.19369268
189	0x3cd9d126	0.026588988
190	0x3da12842	0.07869007
191	0xbd3d8072	-0.046265073
192	0xbe4e9937	-0.20175634
193	0xbdc73a28	-0.09727889
194	0x3b679643	0.0035337366
195	0x3cacde80	0.02110219
196	0xbd18741a	-0.037220098
197	0xbd9b9e51	-0.07598556
198	0xbd9237c7	-0.07139545
199	0xbd13eaab	-0.03611247
200	0xbd7152ff	-0.058917042
201	0x3e54743c	0.20747465
202	0x3eb07e58	0.34471393
203	0x3e18cb96	0.14921412
204	0x3e9b205a	0.3029812
205	0xbe47a65e	-0.19497058
206	0x3d822e7a	0.06356521
207	0xbdd1d123	-0.10244968
208	0xbe427db9	-0.18993272
209	0xbe77f217	-0.24213444
210	0xbe006356	-0.12537894
211	0x3d9d1267	0.076695256
212	0xbe74b593	-0.2389739
213	0xbe1e6c58	-0.15471017
214	0xbd1cfa8c	-0.038324878
215	0xbce4692e	-0.027882185
216	0x3dc7a1d3	0.097476624
217	0xbe400ae1	-0.1875415
218	0xbea40454	-0.32034552
219	0xbc865555	-0.016398111
220	0x3ec39aa6	0.38203925
221	0xbe68a189	-0.22717871
222	0x3e314ede	0.17315242
223	0x3e3d2f41	0.18475057
224	0xbcaa032e	-0.02075347
225	0x3def13d4	0.11673704
226	0x3e4f505f	0.20245503
227	0xbe0133c3	-0.12617402
228	0xbe815ef0	-0.25267744
229	0x3e32a893	0.17447118
230	0xbe2703d6	-0.16310057
231	0x3dec13fe	0.11527251
232	0x3db4255e	0.0879619
233	0x3d72d4da	0.059285022
234	0xbdaec39c	-0.08533403
235	0xbceec654	-0.029147305
236	0x3e8ca269	0.2746766
237	0x3d84674a	0.06465013
238	0xbd7497de	-0.059715144
239	0xbbe1ce4f	-0.006891049
240	0xbcde7c94	-0.027159013
241	0x3d2f2180	0.042756557
242	0xbbb22e4e	-0.005437649
243	0xbf02835d	-0.50981694
244	0xbe53e204	-0.20691687
245	0xbe67a3ae	-0.22621033
246	0x3e45a1d5	0.19300015
247	0x3d212054	0.03933747
248	0xbc9e074a	-0.019290585
249	0xbdcc8aa5	-0.09987382
250	0xbe18bb01	-0.14915086
251	0xbe4d30e3	-0.2003818
252	0xbe0af6b1	-0.13570668
253	0xbddcee64	-0.10787657
254	0x3c492b9b	0.012278463
255	0xbd4856a5	-0.048910756

module.conv2.bias f4 [16]
0	0x3ddaa946	0.106768176
1	0xbc520913	-0.012819546
2	0x3d953a78	0.07286543
3	0x3cdd55e4	0.027018495
4	0xbc2ef333	-0.0106781
5	0x3d0dfb9c	0.03466378
6	0x3d13abc3	0.036052477
7	0x3d9a9170	0.07547271
8	0xbcfa19dc	-0.030529909
9	0x3d222032	0.039581485
10	0x3d85e608	0.065380156
11	0x3d226eb9	0.039656375
12	0xbcd4891d	-0.025944287
13	0xbd02c128	-0.03192249
14	0x3d99f16b	0.0751675
15	0x3cf78688	0.030215517

module.bn2.weight f4 [16]
0	0x3f997afb	1.1990656
1	0x3f96dfb4	1.1787019
2	0x3f960a3d	1.1721874
3	0x3f90d050	1.1313572
4	0x3f880055	1.0625101
5	0x3f8bfccb	1.0936521
6	0x3f8d4ac8	1.1038446
7	0x3f8e18ab	1.1101278
8	0x3f87ea56	1.0618389
9	0x3f8d7c11	1.1053487
10	0x3f939766	1.1530578
11	0x3f8fe8ea	1.1242955
12	0x3f861b1e	1.0477026
13	0x3f8ad061	1.0844842
14	0x3f8e5ce6	1.11221
15	0x3f993097	1.1967953

module.bn2.bias f4 [16]
0	0xbaeefb26	-0.0018232807
1	0xbd5a0d19	-0.053235147
2	0xbc352ce0	-0.011058062
3	0x3bfda319	0.00774039
4	0xbd45766f	-0.04820865
5	0xbc9a50ff	-0.01883745
6	0x3c04be02	0.008101942
7	0xbcdf5bbd	-0.027265424
8	0xbd9b4c26	-0.075828835
9	0xbce004dd	-0.027346069
10	0x3c9c3562	0.019068424
11	0xbd3dc152	-0.046326943
12	0xbcf75968	-0.030194
13	0xbd8afd2b	-0.06786569
14	0x3bdad402	0.0066781053
15	0x3ca277f4	0.019832589

module.bn2.running_mean f4 [16]
0	0x3ee50746	0.44732112
1	0x3f0f12ba	0.5588795
2	0x3ebe60d6	0.37183255
3	0x3e71fcb9	0.23631562
4	0x3f3f6d71	0.7477637
5	0x3e97eee5	0.2967445
6	0x3f0dc01f	0.5537128
7	0x3f06438a	0.52446806
8	0x3f155d07	0.58345073
9	0x3f041149	0.51588875
10	0x3ec0bd74	0.3764454
11	0x3ed89b08	0.4230578
12	0x3f7f88cf	0.9981813
13	0x3ebc06f6	0.3672406
14	0x3eb90da9	0.36143234
15	0x3ed806a4	0.42192566

module.bn2.running_var f4 [16]
0	0x3ecd1a0d	0.40058938
1	0x3ef1d16b	0.47230086
2	0x3e93a45c	0.28836334
3	0x3dfd6324	0.12372425
4	0x3f820244	1.0156941
5	0x3e529034	0.20562822
6	0x3f1f783a	0.62292826
7	0x3f36b0eb	0.71363705
8	0x3ee818a4	0.453313
9	0x3ec32c38	0.38119674
10	0x3e9f33c0	0.3109417
11	0x3f005be8	0.5014024
12	0x3fe56cad	1.792379
13	0x3e6394de	0.22224757
14	0x3ef0e60c	0.47050512
15	0x3e976ee5	0.29576793

module.conv3.weight f4 [32, 16, 3, 3]
0	0x3c9eb44b	0.01937308
1	0xbd4529c3	-0.04813553
2	0x3e0ad73d	0.1355867
3	0xbce694cb	-0.028147122
4	0x3cb5f763	0.02221269
5	0xbe4869d7	-0.19571625
6	0x3dfa47d5	0.12220732
7	0xbdef5973	-0.11686983
8	0x3e1fbc15	0.15599091
9	0x3bbe95b7	0.0058161872
10	0xbd1b79b3	-0.03795786
11	0x3d08b05e	0.03337132
12	0x3bf817ec	0.007571211
13	0xbeb89451	-0.36050656
14	0x3baee865	0.005337762
15	0xbd02b6a8	-0.031912476
16	0x3c6f6e40	0.014613688
17	0xbe51547e	-0.20442387
18	0xbd7d7660	-0.06188047
19	0xbd0adc2a	-0.03390137
20	0xbe8b3077	-0.27185413
21	0x3dc24ff0	0.09487903
22	0x3d6b1c0f	0.057399806
23	0x3dc18a4e	0.09450208
24	0xbc42c56a	-0.0118878875
25	0xbd06b061	-0.03288305
26	0x3dbfbd45	0.09362272
27	0x3e6de0be	0.23230264
28	0x3dec80ee	0.11548029
29	0x3cd7c55d	0.026339227
30	0xbde0dee1	-0.10980011
31	0xbe431cca	-0.19053951
32	0xbe07819c	-0.13233036
33	0xbd4ac2f0	-0.049502313
34	0xbc592b33	-0.013254928
35	0x3e4864a5	0.19569643
36	0xbe014531	-0.1262405
37	0x3cd70c5f	0.026251016
38	0xbe0ae573	-0.1356409
39	0x3ccdfcfd	0.025145048
40	0xbdbfa47f	-0.09357547
41	0xbd9750ba	-0.07388444
42	0xbe194eac	-0.14971417
43	0xbdb3aa36	-0.087726995
44	0xbd6e2631	-0.05814189
45	0xbd36601e	-0.04452526
46	0x3dd75c63	0.10515668
47	0x3ddc53b6	0.10758154
48	0x3dd5b3ec	0.10434708
49	0xbcc270c3	-0.02373541
50	0x3debb755	0.11509577
51	0x3c916418	0.017747924
52	0x3e7575ca	0.23970714
53	0x3d298c6f	0.041393694
54	0x3d814ee1	0.06313873
55	0xbdd39696	-0.10331456
56	0xbdb553df	-0.08853888
57	0x3e0564c8	0.13026726
58	0x3eaa4c0a	0.33261138
59	0xbdf5c4ff	-0.12000465
60	0x3cd84730	0.026401132
61	0xbe1f44f7	-0.15553652
62	0xbe36b54e	-0.178426
63	0xbe89a877	-0.2688634
64	0xbd4a2efd	-0.049361218
65	0xbe4bcba8	-0.19901907
66	0x3e85c053	0.26123294
67	0xbc0fdcd9	-0.0087806815
68	0xbcf981b1	-0.03045735
69	0x3e439c6c	0.19102639
70	0x3e501b67	0.20322953
71	0x3da7d29e	0.08194469
72	0x3e2c6e40	0.16838932
73	0x3da68f6b	0.081328236
74	0xbd8d4335	-0.06897584
75	0xbd84363c	-0.06455657
76	0x3da02d89	0.07821185
77	0xbde157b0	-0.11003053
78	0x3c834150	0.016022354
79	0xbd1d4f23	-0.03840555
80	0xbcfef3e5	-0.031122157
81	0x3d4c19f8	0.049829453
82	0x3d1a431a	0.03766165
83	0xbe1103c8	-0.14161599
84	0xbe5cb32f	-0.21552728
85	0xbdce1cc3	-0.100640796
86	0xbd87a5f4	-0.0662345
87	0x3e09bda4	0.13451248
88	0x3e131c07	0.1436616
89	0x3e145c1a	0.14488259
90	0x3e9f0d6f	0.31064937
91	0x3e6324ed	0.22182055
92	0x3e36e7a4	0.17861801
93	0x3bf31a8c	0.007418936
94	0xbdb6d59d	-0.08927462
95	0xbe589bf6	-0.21153244
96	0xbc39b1ea	-0.011333922
97	0x3cb6fb1d	0.022336537
98	0x3e15ec11	0.14640833
99	0x3c06d997	0.008230588
100	0xbbb7a7a5	-0.0056047016
101	0x3e1bf1bf	0.15228938
102	0xbdc8bf40	-0.09802103
103	0xbe1627b6	-0.14663586
104	0xbe996375	-0.29958692
105	0x3e67eeb2	0.22649649
106	0x3e8d90c0	0.27649498
107	0x3e624655	0.22097142
108	0x3d2405d8	0.040044636
109	0x3e47eb26	0.19523296
110	0xbe41dde8	-0.18932307
111	0x3d924bc2	0.07143356
112	0x3e850ac4	0.25984776
113	0xbcf8d2b0	-0.030373901
114	0xbc5dd11f	-0.013538628
115	0x3ddb59db	0.10710498
116	0xbd4ca624	-0.04996313
117	0xbdf1c4f7	-0.11805146
118	0xbda27571	-0.079325564
119	0x3dbaee62	0.09127499
120	0x3ba18013	0.0049285977
121	0x3d27b8cb	0.040947717
122	0x3d9f9485	0.07792
123	0xbdb7db49	-0.08977372
124	0xbd9cff22	-0.0766585
125	0xbd21d8b4	-0.039513305
126	0xbd2278d5	-0.039666016
127	0x3d3029a9	0.04300848
128	0xbddbe431	-0.107368834
129	0x3e86170c	0.26189458
130	0x3e8421a9	0.2580693
131	0x3ea35bb6	0.31905907
132	0x3d0fa405	0.03506853
133	0xbdfc4661	-0.12318111
134	0x3e8548e9	0.2603219
135	0x3e00e645	0.12587841
136	0xbd6d1fdd	-0.057891715
137	0x3d1266d0	0.03574258
138	0x3c82fdc1	0.01599014
139	0x3db819f5	0.08989326
140	0x3de14731	0.10999907
141	0xbc562f52	-0.0130728055
142	0x3d5d20d3	0.05398638
143	0xbdba1c76	-0.0908746
144	0xbc08e453	-0.008355218
145	0x3e2cfb80	0.16892815
146	0x3e1db162	0.15399697
147	0xbe0c3a1a	-0.13694039
148	0xbcdd8476	-0.027040701
149	0xbd718c15	-0.058971483
150	0x3e22c26c	0.15894479
151	0xbd75ee2b	-0.060041588
152	0x3e9a009e	0.30078596
153	0x3ba9c2c6	0.0051806895
154	0x3e07e985	0.13272674
155	0xbd6ff68f	-0.058584746
156	0xbe8865fc	-0.26640308
157	0x3ddbade3	0.10726526
158	0xbdfe5422	-0.12418391
159	0x3da961d9	0.08270616
160	0xbe07a1d9	-0.13245334
161	0xbe6abc51	-0.229234
162	0x3cef7827	0.029232098
163	0xbe40544f	-0.18782161
164	0x3e55b209	0.20868696
165	0x3dc88478	0.097908914
166	0x3e3d2340	0.18470478
167	0x3e1eb0f8	0.15497196
168	0xbe08f049	-0.13372912
169	0xbd1cff40	-0.038329363
170	0x3dda665d	0.106640555
171	0x3dc545a9	0.09632427
172	0x3ddc4b7e	0.107565865
173	0x3e250f6f	0.16119169
174	0xbea801d4	-0.32813895
175	0xbd66d7da	-0.056358196
176	0xbd5fc94b	-0.054635327
177	0x3e86299c	0.2620362
178	0x3de5a4f2	0.112131014
179	0xbd98b608	-0.07456595
180	0xbc878f13	-0.016547715
181	0xbcf1e714	-0.029529132
182	0xbdadf032	-0.08493079
183	0x3ca80a60	0.02051276
184	0xbddfcef8	-0.10928148
185	0xbc986e7f	-0.018607376
186	0xbdfb6c46	-0.12276511
187	0xbd3854fb	-0.04500292
188	0xbd016984	-0.03159477
189	0xbe2aa0ad	-0.16662855
190	0x3e27bfbf	0.16381739
191	0xbccba82b	-0.024860462
192	0xbdb85566	-0.090006635
193	0xbdcbcbfe	-0.09951018
194	0xbe368191	-0.17822863
195	0xbcb0e2b9	-0.021592485
196	0x3dcb5f3a	0.099302724
197	0x3e951e06	0.2912447
198	0x3da453ab	0.08023771
199	0x3df0f2d3	0.11765065
200	0x3dcc2e1b	0.099697314
201	0x3e898124	0.2685634
202	0x3dfbcd0d	0.1229497
203	0x3b11ebbd	0.0022265755
204	0x3e94080c	0.2891239
205	0x3e31de65	0.17369993
206	0x3e7cf8b8	0.24704254
207	0xbd46c0d4	-0.04852374
208	0x3d17845d	0.036991466
209	0xbd507a37	-0.050897803
210	0x3df0a978	0.117510736
211	0x3e39703b	0.18109219
212	0x3ca79cc8	0.020460501
213	0xbcec7666	-0.02886505
214	0xbe251b42	-0.1612368
215	0x3dc7fa01	0.09764481
216	0xbdb9b5fb	-0.09067913
217	0x3e5e11cf	0.21686481
218	0xbd9963d0	-0.07489741
219	0xbe498256	-0.19678625
220	0xbe7ee0fc	-0.24890512
221	0xbc35f7f1	-0.011106477
222	0xbe427040	-0.18988132
223	0xbe18b0dd	-0.14911218
224	0x3a4c3e81	0.0007791296
225	0xbe106947	-0.1410266
226	0x3d1b37a3	0.037894856
227	0x3d1d5752	0.038413353
228	0xbe3777d8	-0.1791681
229	0xbe85a1d8	-0.2610004
230	0xbe7d78f6	-0.24753174
231	0xbe06195a	-0.13095608
232	0xbdec94ee	-0.115518436
233	0xbe39fb18	-0.18162191
234	0x3e452f79	0.1925639
235	0xbddd5d26	-0.10808782
236	0xbd574fad	-0.05256622
237	0xbd8d4b3f	-0.06899118
238	0x3e3c8fb9	0.18414201
239	0xbd00a002	-0.031402595
240	0x3e9e56fb	0.30925736
241	0x3e216f38	0.15765083
242	0x3e87ada2	0.2649966
243	0x3d2ee052	0.042694397
244	0xbddcbd6b	-0.10778316
245	0x3d34af5d	0.044112552
246	0xbd218e4a	-0.039442338
247	0xbede601e	-0.43432707
248	0xbe1254e7	-0.142902
249	0x3c8b1b95	0.016980926
250	0x3ccffca9	0.025389032
251	0x3e83d9e8	0.25752187
252	0xbdef1048	-0.11673027
253	0xbd04c591	-0.032414977
254	0xbc2ff33b	-0.010739143
255	0x3b99215d	0.0046731667

module.conv3.bias f4 [32]
0	0x3d3f9e5c	0.046781883
1	0x3d3e5152	0.04646427
2	0xbc05ee21	-0.00817445
3	0x3c1fef8e	0.009761704
4	0x3d1d1e36	0.03835889
5	0xbbe9f60e	-0.0071399277
6	0x3db84f2d	0.089994766
7	0xb982ab17	-0.00024923004
8	0x3cab2eab	0.020896276
9	0x3d05c6a9	0.03266016
10	0xbb993d03	-0.0046764626
11	0x3d78c654	0.060736015
12	0x3cd9086c	0.026493274
13	0x3ce04abb	0.027379384
14	0x3d0982ec	0.033572122
15	0x3b8db91c	0.0043250453
16	0x3d00cafc	0.03144358
17	0xbc87ab26	-0.016561102
18	0x3d4e067e	0.05029916
19	0x3b0c5e2f	0.0021418442
20	0x3c4dbbc6	0.012556976
21	0x3d7225a8	0.059117943
22	0x3cb435bf	0.021998284
23	0x3c17611b	0.00923946
24	0xbb148309	-0.002266111
25	0x3d3e9414	0.046527937
26	0xbccf6eda	-0.025321413
27	0x3d32178d	0.04347949
28	0x3d0ce523	0.03439821
29	0x3ac9b2a1	0.0015388319
30	0x3d1ec689	0.038763557
31	0x3c387ed5	0.011260708

module.bn3.weight f4 [32]
0	0x3f919561	1.1373712
1	0x3f940b63	1.1565975
2	0x3f990dd7	1.1957349
3	0x3f866017	1.0498074
4	0x3f9127f5	1.1340319
5	0x3f8601d2	1.0469306
6	0x3fa00f7f	1.2504729
7	0x3f8f9368	1.121686
8	0x3f900289	1.1250774
9	0x3f903a7b	1.1267847
10	0x3f8c47a1	1.095936
11	0x3f8482e4	1.0352445
12	0x3f91529f	1.1353339
13	0x3f947d20	1.1600685
14	0x3f928cb1	1.1449186
15	0x3f8b8171	1.0898877
16	0x3f87f2a4	1.0620923
17	0x3f878833	1.058844
18	0x3f95c616	1.1701076
19	0x3f90f252	1.132395
20	0x3f883650	1.0641575
21	0x3f99ecc6	1.2025383
22	0x3f9367af	1.1516017
23	0x3f87eeb4	1.0619721
24	0x3f92395b	1.1423753
25	0x3f9782c2	1.1836779
26	0x3f8559ff	1.041809
27	0x3f8e9c4a	1.1141446
28	0x3f9742db	1.1817278
29	0x3f8bd544	1.0924459
30	0x3f8c47d0	1.0959415
31	0x3f867d77	1.0507039

module.bn3.bias f4 [32]
0	0x3abda99f	0.0014470107
1	0x3aede637	0.0018150274
2	0xbd123875	-0.035698373
3	0xbc87f065	-0.016594121
4	0xbd1113ef	-0.0354194
5	0xbc9aeaa0	-0.018910706
6	0xbc565cc6	-0.013083642
7	0xbc577cb2	-0.013152288
8	0xbc8a5ea6	-0.016890835
9	0xbb9ecbf4	-0.0048460905
10	0xbd7e6a76	-0.062113248
11	0x3cc02033	0.023452854
12	0x3c452c17	0.012034438
13	0xbbf7d226	-0.0075628934
14	0xbcdf0b0c	-0.027226947
15	0xbd3c9452	-0.046039887
16	0xbc2b9f8d	-0.010475052
17	0xbd203a1e	-0.039117925
18	0xba2f68bb	-0.0006691326
19	0xbd0b906d	-0.034073282
20	0xbc7c24d0	-0.015389636
21	0xbca523fc	-0.02015876
22	0xbcdfd0dd	-0.027321273
23	0xbc86d708	-0.016459957
24	0xbd2a184f	-0.04152709
25	0xbaf60831	-0.0018770752
26	0xbd66d0a1	-0.056351308
27	0x3bb294a4	0.0054498482
28	0xbcb30ab2	-0.021855686
29	0xbd072206	-0.03299143
30	0x3aa0c116	0.0012264575
31	0xbc1a27df	-0.00940892

module.bn3.running_mean f4 [32]
0	0x3ec8c83a	0.3921526
1	0x3f11ffbf	0.5703086
2	0x3ed8a637	0.42314312
3	0x3ed25bdd	0.4108571
4	0x3ef3922e	0.47572464
5	0x3f02d764	0.5110991
6	0x3efbae87	0.4915659
7	0x3f6bb7cc	0.92077327
8	0x3eb14181	0.34620288
9	0x3f18fd8a	0.5976187
10	0x3ede8db7	0.43467495
11	0x3f21e130	0.63234234
12	0x3f300174	0.6875222
13	0x3f0a3936	0.53993547
14	0x3eb16fcd	0.3465561
15	0x3ec35f94	0.38158858
16	0x3edd8305	0.43264022
17	0x3f077607	0.5291447
18	0x3eeb8cac	0.46005762
19	0x3efb9b21	0.4914179
20	0x3f2558bd	0.6458853
21	0x3efd24f3	0.49442253
22	0x3f285302	0.6575166
23	0x3f5329f6	0.824859
24	0x3ef6b776	0.48186845
25	0x3f0115e8	0.5042405
26	0x3ee1e42d	0.44119397
27	0x3f41b9b6	0.75674
28	0x3eea1b53	0.45723972
29	0x3f2263ed	0.63433725
30	0x3f0ad952	0.54237854
31	0x3f09eaa5	0.53873664

module.bn3.running_var f4 [32]
0	0x3eb6559f	0.356122
1	0x3f2b2ac1	0.6686211
2	0x3ece30b4	0.40271533
3	0x3f09adff	0.5378112
4	0x3f19cc3e	0.60077274
5	0x3f29780b	0.66198796
6	0x3f11afc4	0.5690882
7	0x3fb5e2d1	1.4209844
8	0x3eb6c976	0.35700577
9	0x3f4b324f	0.7937364
10	0x3f2376c8	0.6385312
11	0x3f33b373	0.7019569
12	0x3f7a9423	0.9788229
13	0x3eff34c3	0.49844941
14	0x3edf244d	0.43582383
15	0x3eac43ff	0.33645627
16	0x3f10fc69	0.5663515
17	0x3f03e13e	0.5151557
18	0x3eec0732	0.4609924
19	0x3ed6e669	0.41972664
20	0x3f58361a	0.8445755
21	0x3ed1f872	0.4100986
22	0x3f77cb20	0.9679432
23	0x3f95aeab	1.169393
24	0x3ef6e721	0.48223212
25	0x3ebad33e	0.3648929
26	0x3efddcb4	0.49582446
27	0x3f7702d3	0.96488684
28	0x3ec2035a	0.37893182
29	0x3f2012be	0.625286
30	0x3f2a1f2f	0.6645383
31	0x3f09e99d	0.5387209

module.conv4.weight f4 [128, 64, 3, 3]
0	0x3d3047d0	0.043037236
1	0xbbee36d6	-0.0072697205
2	0x3d5fee24	0.054670468
3	0xbb88bd6d	-0.004172972
4	0xbd160e98	-0.03663501
5	0x3d334041	0.04376245
6	0xbd7fba67	-0.062433627
7	0x3e0b8365	0.13624342
8	0x3c0ab594	0.008466143
9	0x3bdde78a	0.0067719864
10	0xbd3033a4	-0.043018
11	0xbd52a70e	-0.051428847
12	0x3d7da532	0.06192512
13	0xbcf51f7d	-0.029922241
14	0x3df6d4e1	0.12052322
15	0xbdb95078	-0.09048551
16	0x3b67c54d	0.0035365403
17	0xbd75e4aa	-0.060032524
18	0xbbd33b3f	-0.0064462717
19	0x3cc3a655	0.023883024
20	0x3de5f620	0.11228585
21	0xbdd16555	-0.10224406
22	0x3cbd02ec	0.023072682
23	0xbdd12a74	-0.102131754
24	0x3e1879f4	0.14890271
25	0x3dbd7e27	0.09252577
26	0xbbd4af6a	-0.0064906375
27	0x3b7f870b	0.0038990404
28	0x3d787695	0.060659964
29	0xbae9d705	-0.001784057
30	0xbd1cc081	-0.038269524
31	0x3c7de075	0.015495409
32	0xbbe61bcb	-0.007022356
33	0x3e13f60b	0.14449327
34	0x3cee5bf8	0.029096588
35	0x3cd1cbb9	0.025609838
36	0x3d22dda8	0.03976217
37	0xbdd3c4a3	-0.1034024
38	0xbcf48052	-0.029846344
39	0x3cb365c0	0.021899104
40	0xbc5ad133	-0.013355541
41	0x3db06733	0.08613434
42	0x3dc7a29f	0.097478144
43	0xbdda4b5b	-0.10658904
44	0xbb94f2cd	-0.0045455457
45	0xbcc1b132	-0.023644064
46	0xbd710e31	-0.058851425
47	0xbcd24fcc	-0.025672816
48	0xbc8cd98d	-0.01719358
49	0x3d24d86c	0.04024546
50	0xbcbb00fe	-0.022827622
51	0xbd7b5c56	-0.061367355
52	0xbd018a91	-0.031626288
53	0xbd893717	-0.06699961
54	0x3c462bfb	0.012095447
55	0x3d304bbc	0.043040976
56	0x3c947d7a	0.018126238
57	0xbc304eb7	-0.010760955
58	0x3b337685	0.0027383876
59	0x3cc6f197	0.02428512
60	0xbd9362cb	-0.07196578
61	0xbdaf79eb	-0.08568176
62	0x3c17cb92	0.009264844
63	0xbcd8be17	-0.02645783
64	0x3b7cab77	0.003855435
65	0xbd46b485	-0.048512
66	0x3cb6080c	0.022220634
67	0x3d70b402	0.05876542
68	0xbcc755dc	-0.024332933
69	0xbd8b304e	-0.06796323
70	0xbdb252b3	-0.0870718
71	0xbc9965fe	-0.018725391
72	0x3d376c4b	0.04478101
73	0x3d236f7f	0.039901253
74	0x3d282794	0.04105337
75	0xbd1b3963	-0.037896525
76	0xbde42371	-0.111395724
77	0xbdcc7466	-0.09983139
78	0x3deb8f7a	0.11501975
79	0x3e22638f	0.15858291
80	0x3d92b779	0.07163901
81	0xbd49ac28	-0.049236447
82	0x3d4c10f7	0.049820866
83	0xbd8f8cd8	-0.07009286
84	0x3d0a85a4	0.033818856
85	0xbcc22526	-0.023699354
86	0xbe31b07c	-0.1735248
87	0xbc8801e8	-0.016602471
88	0x3a29c1c8	0.0006475714
89	0x3c93565d	0.017985517
90	0x3b8e37f8	0.004340168
91	0xbd46ec0c	-0.048564956
92	0xbd455075	-0.048172433
93	0x3dae567e	0.08512591
94	0x3daf54f4	0.085611254
95	0xbcc44ce6	-0.02396245
96	0x3c3a1b15	0.011358996
97	0x3d000173	0.031251382
98	0x3c186556	0.009301504
99	0xbe286afb	-0.1644706
100	0xbe036f43	-0.12835412
101	0x3d31751d	0.04332458
102	0x3db068c2	0.08613731
103	0x3d28c656	0.041204773
104	0x3dce4399	0.10071487
105	0x3d798dc6	0.06092622
106	0x3d7309b7	0.059335437
107	0xbd150ad0	-0.036387265
108	0x3dde9f40	0.10870218
109	0x3d40e612	0.047094412
110	0x3dc22bcf	0.09481012
111	0xbceb61a0	-0.028733075
112	0x3d70a547	0.05875137
113	0x3daaff2c	0.083494514
114	0xbdb86bd9	-0.09004945
115	0xbda50365	-0.08057288
116	0xbc31ebfc	-0.010859486
117	0xbcd9b6b2	-0.026576374
118	0x3dbff959	0.09373731
119	0x3d65a18f	0.056062277
120	0xbd0d4cda	-0.03449712
121	0xbd660599	-0.056157682
122	0x3baf8876	0.0053568436
123	0x3deab2fd	0.114599206
124	0x3d3869d3	0.045022797
125	0x3c81d077	0.015846474
126	0xbd272e6e	-0.040815763
127	0x3d2100a5	0.039307255
128	0x3e09f348	0.1347171
129	0x3ccbf067	0.024894906
130	0x3d8a01da	0.067386344
131	0xbd80c95c	-0.06288406
132	0x3e2000b0	0.15625262
133	0x3d80aaef	0.06282603
134	0x3da1a707	0.07893186
135	0xbe156c25	-0.14592035
136	0xbb8e96bf	-0.0043514664
137	0xbcb1ab26	-0.021688055
138	0xbdd6892a	-0.10475381
139	0xbd9e9da6	-0.07744913
140	0xbbe91406	-0.0071129827
141	0x3e3c133f	0.18366717
142	0x3de9d4c1	0.11417533
143	0x3d26963e	0.040670626
144	0x3d6931a3	0.056932103
145	0x3c814995	0.015782157
146	0xbabc3276	-0.00143583
147	0x3ce3e5d3	0.02781955
148	0xbcaf614a	-0.021408696
149	0x3a1b3e68	0.000592208
150	0x3cb878bc	0.022518508
151	0xbd8990da	-0.06717081
152	0xbe219efa	-0.15783301
153	0xbb3508b6	-0.00276236
154	0xbdb4d93a	-0.08830495
155	0xbb3a069e	-0.0028385292
156	0xbda55f80	-0.08074856
157	0xbae33d30	-0.0017336961
158	0xbcf1d18b	-0.029518863
159	0x3be0d414	0.006861219
160	0xbc3a21ae	-0.011360569
161	0xbd1f67c4	-0.038917318
162	0x3c57da26	0.013174569
163	0xbd702237	-0.05862638
164	0x3d00c237	0.031435218
165	0xbc076f8d	-0.008266342
166	0x3cadd325	0.021218846
167	0xbd26cc93	-0.04072244
168	0xbd1c056a	-0.0380911
169	0xbcb3c7bf	-0.021945832
170	0xbdc3eb29	-0.095663376
171	0x3df19161	0.11795307
172	0x3e1c3dc5	0.15257938
173	0x3e025425	0.12727411
174	0x3c070ad6	0.00824233
175	0xb9022b0a	-0.000124138
176	0x3ccddf5a	0.025130916
177	0xbe14ce15	-0.14531739
178	0xbe8569ed	-0.26057377
179	0xbe81bc2f	-0.25338885
180	0xbcbe5e19	-0.023238229
181	0x3cbac502	0.022799019
182	0xbdd59a71	-0.10429848
183	0xbd976746	-0.07392745
184	0xbdc65c56	-0.096855804
185	0x3d37d81d	0.044883836
186	0xbd2f68c3	-0.042824518
187	0xbd1567f8	-0.036476105
188	0x3d074166	0.033021353
189	0x3d29efd7	0.041488495
190	0x3d429719	0.04750738
191	0x3d11a59f	0.03555834
192	0xbdadb3ab	-0.084815346
193	0x3daea8ec	0.08528313
194	0x3a5ed825	0.0008500836
195	0x3d45b6da	0.048270084
196	0x3d2648db	0.040596824
197	0x3d81201a	0.06304951
198	0x3d847e4a	0.064694
199	0xbd31dc23	-0.04342283
200	0x3b244c79	0.0025069995
201	0xbdfb43a3	-0.1226876
202	0x3c50ec27	0.012751616
203	0x3da9f4cb	0.08298644
204	0x3c61d884	0.0137845315
205	0xbd9c88b3	-0.07643261
206	0xbd3f29f7	-0.04667088
207	0x3da8d75f	0.08244204
208	0x3d7f04e5	0.062260527
209	0x3d2af35b	0.041735988
210	0x3d0268f4	0.031838372
211	0x3dcc08db	0.099626265
212	0x3d66be37	0.056333747
213	0xbdc258df	-0.09489607
214	0x3c89830a	0.016786117
215	0xbcbdbd04	-0.023161419
216	0xbb8ccd18	-0.00429691
217	0x3d046c56	0.03232988
218	0x3d48f31a	0.049059965
219	0x3cfde2f6	0.030992012
220	0x3d392ad7	0.04520687
221	0x3e17def3	0.14831142
222	0x3dce53ce	0.10074578
223	0xbdec1cc2	-0.115289226
224	0xbd45665d	-0.048193324
225	0xbdbe0ac4	-0.09279397
226	0xbd841083	-0.06448462
227	0x3d52de67	0.05148163
228	0x3d971031	0.07376135
229	0x3c1f5bb6	0.009726455
230	0x3d364386	0.04449799
231	0xbe22d792	-0.15902546
232	0xbc329ee0	-0.010902137
233	0xbd9a29c8	-0.075275004
234	0x3dae3aae	0.08507286
235	0x3b72c210	0.003704194
236	0x3dc1a7a4	0.09455803
237	0xbcc94631	-0.024569603
238	0xbc768b95	-0.015047927
239	0x3c96e4ec	0.018419705
240	0x3c8a5976	0.016888361
241	0xbda0d089	-0.07852275
242	0xbd636104	-0.055512443
243	0xbad34737	-0.0016119246
244	0x3dfe1de5	0.12408046
245	0xbcd073fb	-0.025445929
246	0xbe02f945	-0.12790401
247	0x3e173f66	0.14770278
248	0xbd3fbb6b	-0.046809595
249	0xbd085e0e	-0.033292823
250	0xbd4bc445	-0.049747724
251	0xbd2b1d91	-0.041776244
252	0x3cc159e4	0.023602434
253	0x3dbdaf01	0.09261895
254	0x3bf9f311	0.0076278527
255	0x3c73e813	0.014886874

module.conv4.bias f4 [128]
0	0xba1b4a31	-0.0005923836
1	0x3c6f9755	0.014623483
2	0xbb96d5a0	-0.004603103
3	0xbc794854	-0.015214998
4	0x3c6d940c	0.014500629
5	0x3b2f683b	0.0026765007
6	0xbc72ada5	-0.014811908
7	0xbc0fda66	-0.008780098
8	0x3ca3bd6e	0.019987788
9	0xbc96afcd	-0.018394375
10	0xbb727767	-0.003699744
11	0xbb8a57d2	-0.004221895
12	0xb7aaafc6	-2.034743e-05
13	0xbccea6d0	-0.025226027
14	0xbc7290c3	-0.014805022
15	0x3bd59759	0.006518286
16	0xbc28273d	-0.010263261
17	0xbb168848	-0.0022969414
18	0xbca4bd5a	-0.020109821
19	0x396a607c	0.00022351922
20	0xbcd77e29	-0.026305275
21	0xbc1bf2a3	-0.009518298
22	0x3bad8c18	0.0052962415
23	0xbcf61fdc	-0.030044489
24	0x3adbb464	0.0016762135
25	0xbcaa1545	-0.020762095
26	0x3bde945d	0.0067925886
27	0x3ce3437c	0.02774214
28	0xbcf17773	-0.029475903
29	0x3c1e5b7e	0.009665368
30	0x3c9bed92	0.01903418
31	0x3c73bfbb	0.014877255
32	0xbb9fe6b4	-0.004879797
33	0x3c217a7f	0.0098558655
34	0x3cada858	0.021198437
35	0xbd00ad85	-0.03141548
36	0x3bcd3cbb	0.006263343
37	0xbb7ee827	-0.0038895698
38	0x3c6d3657	0.014478288
39	0xbb9c56c5	-0.004771086
40	0x3d06c313	0.03290088
41	0xbba06602	-0.004894973
42	0xbc528116	-0.012848159
43	0xbb7c6d86	-0.003851743
44	0x3b7d8f28	0.0038690064
45	0x3c259104	0.010105375
46	0x3b7cf172	0.003859606
47	0x3c444576	0.011979451
48	0x3b8b3bd7	0.004249077
49	0xbc6f307e	-0.014598964
50	0xbc801b7b	-0.015638104
51	0x3c65647d	0.014001009
52	0x3c03f78a	0.008054623
53	0xbc859ca3	-0.016310042
54	0x3cb4c876	0.022068243
55	0xbc878ef1	-0.016547652
56	0x3ce00b33	0.02734909
57	0x3b5d3324	0.0033752406
58	0x3ca79498	0.020456597
59	0xba76a6fe	-0.0009409039
60	0xbbf334a6	-0.0074220477
61	0x3c93eb5e	0.018056568
62	0x3d05213d	0.0325024
63	0xbd0c4b23	-0.034251343
64	0x3cfa75c9	0.030573742
65	0x3c8d1be4	0.017225213
66	0x3af67ed8	0.0018806113
67	0x3c5a10c7	0.013309664
68	0xbb48f266	-0.003066206
69	0x3ce8907a	0.028389204
70	0xbc61a385	-0.013771896
71	0xbc460b51	-0.012087659
72	0xbb9fe5b0	-0.004879676
73	0x3cf57e32	0.029967401
74	0xbbdb2d1f	-0.0066887285
75	0x3c5af953	0.013365108
76	0x3b6e838f	0.0036394333
77	0xbbd5eb94	-0.0065283272
78	0xbc733c4d	-0.01484592
79	0x3a7cac4c	0.00096387113
80	0x3cef2bbf	0.029195664
81	0xbcbf1866	-0.023327064
82	0xbcd1d087	-0.025612129
83	0x3b50350a	0.0031769895
84	0x3c23e6d5	0.010003765
85	0x3cd2082b	0.02563866
86	0x3c7195e8	0.014745213
87	0xbb70c132	-0.0036736247
88	0x3acd36cf	0.0015656593
89	0xbb961323	-0.004579918
90	0x3c66aa44	0.01407868
91	0xbcc20024	-0.023681708
92	0x3b22a024	0.002481469
93	0x3c8f37d7	0.017482681
94	0xbb9430b6	-0.0045224084
95	0xbc06d046	-0.008228367
96	0xbaad60a8	-0.0013227658
97	0x3bc846fc	0.0061119776
98	0xbbb4f0a0	-0.005521849
99	0x3cd09295	0.02546052
100	0xbc742a05	-0.014902596
101	0x3c9e623f	0.019333957
102	0x3b8b4398	0.004250001
103	0x3be92a0b	0.0071156076
104	0x3d057a97	0.032587614
105	0xbb74bba4	-0.0037343288
106	0xbc12a241	-0.008949817
107	0xbc520f84	-0.012821082
108	0xbb433266	-0.0029784678
109	0x3c150080	0.0090943575
110	0x3be534b9	0.0069948104
111	0x3bd40dbe	0.0064713648
112	0xbc6f9185	-0.014622097
113	0x3b1b8f0e	0.002373639
114	0x3ba8f165	0.0051557296
115	0xbd0e5ea1	-0.034758214
116	0x3ca2674a	0.019824643
117	0x3ccf7b3d	0.02532732
118	0x3be51928	0.0069915242
119	0xbafbeee8	-0.001922098
120	0x3a9a59be	0.0011776013
121	0xbd55d3a7	-0.0522038
122	0xbbd71b28	-0.0065645166
123	0xbc6cf532	-0.014462756
124	0x3c950d24	0.018194743
125	0x3b72aabf	0.0037028042
126	0xbc295df7	-0.010337344
127	0xbc9987e5	-0.018741557

module.bn4.weight f4 [128]
0	0x3f8a35fb	1.0797724
1	0x3f87bdd7	1.060481
2	0x3f8a991f	1.0827979
3	0x3f8821e0	1.0635338
4	0x3f85c29f	1.0450019
5	0x3f89d7aa	1.076894
6	0x3f888214	1.0664697
7	0x3f8ac984	1.0842748
8	0x3f83111a	1.0239594
9	0x3f83c714	1.0295129
10	0x3f84ba84	1.036942
11	0x3f86039f	1.0469855
12	0x3f934bb7	1.1507481
13	0x3f86833c	1.05088
14	0x3f86f221	1.0542642
15	0x3f89f938	1.077918
16	0x3f8a8191	1.082079
17	0x3f81f73c	1.0153575
18	0x3f85ec2e	1.0462701
19	0x3f929a27	1.1453294
20	0x3f8aad33	1.0834106
21	0x3f86e951	1.0539953
22	0x3f91ae01	1.1381227
23	0x3f92b3cc	1.146112
24	0x3f86b4d9	1.052394
25	0x3f82df46	1.0224388
26	0x3f8804e2	1.062649
27	0x3f8f14d7	1.1178235
28	0x3f8955a6	1.0729263
29	0x3f888de4	1.0668302
30	0x3f8855aa	1.0651143
31	0x3f8aa3a5	1.083119
32	0x3f83d0a5	1.0298048
33	0x3f914e68	1.1352053
34	0x3f8678f5	1.0505663
35	0x3f8a5f5e	1.0810354
36	0x3f84914d	1.0356842
37	0x3f891951	1.0710851
38	0x3f86f0a2	1.0542185
39	0x3f85e4e9	1.0460483
40	0x3f923003	1.1420902
41	0x3f882e76	1.0639179
42	0x3f833a19	1.0252105
43	0x3f88d999	1.0691406
44	0x3f872dfd	1.056091
45	0x3f86538f	1.049425
46	0x3f8887f9	1.0666496
47	0x3f83ff81	1.0312349
48	0x3f8722de	1.0557516
49	0x3f83368a	1.0251019
50	0x3f8f4937	1.1194218
51	0x3f8cadb5	1.0990511
52	0x3f85e9a6	1.0461929
53	0x3f86cd59	1.0531417
54	0x3f8aeb1e	1.0853002
55	0x3f8cb7c8	1.0993586
56	0x3f8a3c2d	1.0799614
57	0x3f907ec3	1.1288685
58	0x3f87599a	1.0574219
59	0x3f8607f4	1.0471177
60	0x3f8282e2	1.0196192
61	0x3f8aba3d	1.0838085
62	0x3f8d3980	1.1033173
63	0x3f83f7e1	1.0310022
64	0x3f88dc9d	1.0692326
65	0x3f83240a	1.0245373
66	0x3f8740d9	1.0566665
67	0x3f8abd19	1.0838958
68	0x3f872170	1.0557079
69	0x3f8b26d0	1.087122
70	0x3f9138ea	1.1345494
71	0x3f83cc26	1.0296676
72	0x3f8519aa	1.0398457
73	0x3f870c4e	1.055063
74	0x3f8840d0	1.0644779
75	0x3f8ad010	1.0844746
76	0x3f86974b	1.0514921
77	0x3f8a1053	1.0786232
78	0x3f86fd7c	1.0546107
79	0x3f82727c	1.0191188
80	0x3f86d83a	1.0534737
81	0x3f8d5fc7	1.1044854
82	0x3f8b54b1	1.0885221
83	0x3f84c0ef	1.0371379
84	0x3f8db1eb	1.1069921
85	0x3f88af42	1.0678484
86	0x3f8ce15c	1.1006274
87	0x3f8520bb	1.0400614
88	0x3f8cfdbf	1.1014937
89	0x3f8441d6	1.0332592
90	0x3f84b82a	1.0368702
91	0x3f8437cd	1.0329529
92	0x3f896fc4	1.0737233
93	0x3f87ef19	1.0619842
94	0x3f87665b	1.0578111
95	0x3f8830a6	1.0639846
96	0x3f8543e5	1.0411345
97	0x3f858dd7	1.0433911
98	0x3f87a35e	1.0596731
99	0x3f825730	1.0182858
100	0x3f847659	1.0348617
101	0x3f836fbc	1.0268474
102	0x3f83cde0	1.0297203
103	0x3f850aac	1.0393882
104	0x3f887693	1.0661186
105	0x3f8c2727	1.0949448
106	0x3f833e32	1.0253356
107	0x3f880370	1.0626049
108	0x3f8ff28e	1.1245897
109	0x3f8c3b3d	1.0955578
110	0x3f90ed26	1.1322372
111	0x3f949e40	1.1610794
112	0x3f85e5d4	1.0460763
113	0x3f913b51	1.1346227
114	0x3f880558	1.0626631
115	0x3f83454b	1.0255522
116	0x3f84aa94	1.0364556
117	0x3f82c92e	1.0217645
118	0x3f8414ce	1.0318849
119	0x3f89a522	1.075352
120	0x3f89001e	1.0703161
121	0x3f8d4149	1.1035548
122	0x3f88f734	1.070044
123	0x3f835f90	1.0263538
124	0x3f8b8c2a	1.090215
125	0x3f818768	1.0119448
126	0x3f866d7d	1.0502163
127	0x3f8ac461	1.084118

module.bn4.bias f4 [128]
0	0xbcbcba57	-0.023038073
1	0xbcee1b0d	-0.029065633
2	0xbd749c02	-0.059719093
3	0xbd16959d	-0.036763776
4	0xbd0e0386	-0.03467133
5	0xbd3dcd2e	-0.046338253
6	0xbd2ca90d	-0.042153407
7	0xbd84d40c	-0.06485757
8	0x39eb43e2	0.0004487327
9	0xbcf0ef43	-0.029410964
10	0xbd0c16fb	-0.034201603
11	0xbd230a14	-0.039804533
12	0xbd749e7a	-0.059721448
13	0xbd9e3645	-0.07725195
14	0xbd9b8e29	-0.07595474
15	0xbc27a8ee	-0.010233147
16	0xbd71726f	-0.058947023
17	0xbd202efc	-0.039107308
18	0xbd802180	-0.062563896
19	0xbda9a962	-0.0828426
20	0xbd900634	-0.07032433
21	0xbd4d6cfb	-0.05015276
22	0xbd0bd716	-0.03414067
23	0xbdb77d90	-0.08959496
24	0xbcaac3c4	-0.020845301
25	0xbd133f7e	-0.035949223
26	0xbd16da86	-0.036829494
27	0xbd053e40	-0.03253007
28	0xbda4c268	-0.080448925
29	0xbca808cb	-0.020512005
30	0xbd6368eb	-0.05551998
31	0xbcd2fa4d	-0.025754118
32	0xbca58ede	-0.020209726
33	0xbd52e613	-0.051488947
34	0xbcd920cc	-0.026504897
35	0xbd86d4e9	-0.06583578
36	0xbd01b628	-0.03166786
37	0xbd3c2814	-0.04593666
38	0xbc967895	-0.018368045
39	0xbd64e232	-0.05587978
40	0xbce2422f	-0.02761945
41	0xbd9fd9d4	-0.07805219
42	0xbccea5f4	-0.025225617
43	0xbcd6d665	-0.026225278
44	0xbcd394e7	-0.025827838
45	0xbd3bc61c	-0.04584323
46	0xbd4066d8	-0.04697308
47	0xbce1c99c	-0.027561955
48	0xbd3e3c43	-0.04644419
49	0xbd10a26c	-0.035311148
50	0xbd81bbb2	-0.06334628
51	0xbd956557	-0.0729472
52	0xbd21e4ec	-0.039524958
53	0xbd9bf7fb	-0.07615658
54	0xbbb7c577	-0.0056082564
55	0xbd59de11	-0.053190295
56	0xbc02e3b5	-0.00798886
57	0xbd3a0edc	-0.045424327
58	0xbc43c359	-0.01194843
59	0xbb8d1b29	-0.0043062163
60	0x3c66d90d	0.014089835
61	0xbd5f9dc7	-0.054593828
62	0xbc275856	-0.010213932
63	0xbd449987	-0.047997978
64	0xbc1fe237	-0.009758524
65	0xbc169b8c	-0.009192359
66	0xbda57158	-0.08078259
67	0xbd262e35	-0.04057141
68	0xbd3b3633	-0.045705985
69	0xbc6d0375	-0.014466156
70	0xbdcca04e	-0.09991513
71	0xbda11bed	-0.078666545
72	0xbd4830d4	-0.04887469
73	0xbcb0058f	-0.021487026
74	0xbd706aba	-0.058695532
75	0xbd04ccc0	-0.032421827
76	0xbd33681d	-0.043800462
77	0xbd369621	-0.044576768
78	0xbd7e92d7	-0.062151756
79	0xbce964ed	-0.028490508
80	0xbd0d8399	-0.03454933
81	0xbd3be891	-0.04587609
82	0xbd889353	-0.06668725
83	0xbcfd3d5e	-0.030913051
84	0xbda5dd08	-0.08098799
85	0xbbaf1a4a	-0.00534371
86	0xbc87663c	-0.016528241
87	0xbcbd7a82	-0.023129705
88	0xbd159b98	-0.03652534
89	0xbcbd18dd	-0.023083145
90	0xbc71b378	-0.014752261
91	0xbd2336b6	-0.0398471
92	0xbd079ddd	-0.033109535
93	0xbc5f7b6f	-0.013640269
94	0xbd1cfe37	-0.038328376
95	0xbcf0140d	-0.029306436
96	0xbcf2505e	-0.029579338
97	0xbcd7fe75	-0.026366452
98	0xbd3c1aa3	-0.04592384
99	0xbc5f341f	-0.0136232665
100	0xbd7a1af6	-0.06106087
101	0xbc981e32	-0.018569086
102	0xbc89b5a3	-0.016810244
103	0xbc9bf15f	-0.019035993
104	0xbbcf13e8	-0.0063195117
105	0xbd5b78a6	-0.053581856
106	0xbd120782	-0.03565169
107	0xbd5e852b	-0.054326218
108	0xbd6988f2	-0.057015367
109	0xbcc24e51	-0.023718985
110	0xbd583ffc	-0.052795395
111	0xbd583a3b	-0.052789908
112	0xbd07b003	-0.033126842
113	0xbd461850	-0.04836303
114	0xbcdc2a39	-0.026875602
115	0xbd7985d4	-0.060918644
116	0xbcd4291c	-0.025898509
117	0x3c4bda5f	0.0124422
118	0xbc70da6a	-0.0147005115
119	0xbcee17e0	-0.029064119
120	0xbd5638c8	-0.052300245
121	0xbda99e4f	-0.08282148
122	0xbd63dac3	-0.05562855
123	0xbd096b1f	-0.033549424
124	0xbd22f6c7	-0.039786126
125	0xbcb28ad0	-0.021794707
126	0xbd3b4096	-0.04571589
127	0xbd0bc6d3	-0.03412516

module.bn4.running_mean f4 [128]
0	0x3ee5e57b	0.44901642
1	0x3f126b68	0.5719514
2	0x3ed0e9c9	0.40803364
3	0x3ef749ee	0.4829859
4	0x3f0a504c	0.54028773
5	0x3f0d6993	0.5523922
6	0x3ed49f93	0.41527995
7	0x3ed4306e	0.414432
8	0x3f0946b7	0.5362353
9	0x3f139930	0.5765562
10	0x3f05e816	0.5230726
11	0x3f1b27ce	0.6060761
12	0x3ed01040	0.40637398
13	0x3ef2fae7	0.47457048
14	0x3ee07a6f	0.4384341
15	0x3ef7fd11	0.48435262
16	0x3f020170	0.50783443
17	0x3f1e64c4	0.61872506
18	0x3f1d1b86	0.6137012
19	0x3f1981a9	0.5996347
20	0x3eef22f2	0.4670635
21	0x3ef5eb17	0.48030922
22	0x3f1aab4d	0.60417634
23	0x3eecc45b	0.46243557
24	0x3f244972	0.6417457
25	0x3edcd1b1	0.43128732
26	0x3ee8989f	0.4542894
27	0x3ec8f0ab	0.39246115
28	0x3edd9ec7	0.432852
29	0x3f1fb177	0.62380165
30	0x3ef883d0	0.48538065
31	0x3eb3f817	0.35150215
32	0x3eee7bd1	0.4657884
33	0x3f0d1a2c	0.5511806
34	0x3ee4ffd6	0.44726437
35	0x3f084817	0.53235
36	0x3f0ee2ea	0.55814993
37	0x3f0e165e	0.5550288
38	0x3ecfcc85	0.40585724
39	0x3ed93e80	0.42430496
40	0x3f21a67d	0.63144666
41	0x3efbee5e	0.49205297
42	0x3f2c90a8	0.6740823
43	0x3f097550	0.5369463
44	0x3f07f2d8	0.53104925
45	0x3eee1eae	0.46507782
46	0x3ef571bf	0.47938344
47	0x3ef148d6	0.47125882
48	0x3ee7c5a5	0.45267978
49	0x3f0fd721	0.56187636
50	0x3ef77559	0.48331717
51	0x3ed3d42e	0.41372818
52	0x3f270dc2	0.6525537
53	0x3ef9b553	0.48771152
54	0x3f0656c3	0.5247614
55	0x3eec2118	0.46119
56	0x3f01b185	0.506615
57	0x3edbdd84	0.4294244
58	0x3f2df06d	0.67944986
59	0x3eb7da3b	0.35908684
60	0x3f054655	0.52060443
61	0x3ea57aa1	0.3232012
62	0x3efd8a30	0.4951949
63	0x3f159f61	0.5844632
64	0x3f030b19	0.5118881
65	0x3ef374da	0.47550088
66	0x3f07a740	0.5298958
67	0x3f02551c	0.50911117
68	0x3f0e7ef3	0.5566246
69	0x3f034056	0.51270044
70	0x3f0a45a3	0.5401251
71	0x3f039b64	0.5140898
72	0x3ef6338d	0.48086205
73	0x3ef1b47a	0.47208005
74	0x3eb466e9	0.35234764
75	0x3ece79a6	0.40327185
76	0x3f0bfb7f	0.5468063
77	0x3ebdb070	0.37048674
78	0x3f022a43	0.50845736
79	0x3ee67fe0	0.45019436
80	0x3f274931	0.65346056
81	0x3ee48562	0.44633013
82	0x3efa8a54	0.4893366
83	0x3ede9898	0.43475795
84	0x3eb33a2f	0.35005328
85	0x3ef482ba	0.47755986
86	0x3f131254	0.5744984
87	0x3f00594f	0.50136274
88	0x3edb3675	0.42814985
89	0x3f0c49c2	0.54800045
90	0x3ee6ec85	0.45102325
91	0x3edce379	0.43142298
92	0x3edddbb5	0.43331686
93	0x3efbaa9e	0.49153608
94	0x3ed2fbcb	0.41207728
95	0x3f232894	0.6373379
96	0x3ed09074	0.4073521
97	0x3ee72004	0.45141613
98	0x3f11fbf8	0.570251
99	0x3ed27bfa	0.41110212
100	0x3f0ec580	0.5577011
101	0x3f11d11f	0.5695972
102	0x3f08c29d	0.53421956
103	0x3f0ee342	0.5581552
104	0x3f190be9	0.597838
105	0x3ee6e722	0.45098215
106	0x3eebd167	0.460582
107	0x3f053d7f	0.5204696
108	0x3ee2ad07	0.44272634
109	0x3f1d0078	0.6132884
110	0x3efe2bc7	0.49642774
111	0x3f02d7d2	0.51110566
112	0x3f04b339	0.5183597
113	0x3efca3bd	0.49343672
114	0x3ef70235	0.4824387
115	0x3f0051f2	0.5012504
116	0x3ed0ac41	0.4075642
117	0x3f10e1fb	0.5659482
118	0x3f13a3f4	0.5767205
119	0x3eeb4220	0.45948887
120	0x3f05ac6f	0.5221624
121	0x3efc6318	0.49294353
122	0x3ee24a21	0.4419718
123	0x3f0491dc	0.51785064
124	0x3f08f7c1	0.5350304
125	0x3f0f24e4	0.55915666
126	0x3efd7a8c	0.49507558
127	0x3f129997	0.5726561

module.bn4.running_var f4 [128]
0	0x3f03cfec	0.5148914
1	0x3f135b92	0.575616
2	0x3ef93a35	0.4867722
3	0x3f16b7b5	0.58874065
4	0x3f38cb01	0.7218476
5	0x3f4ed564	0.8079436
6	0x3f108d0b	0.56465214
7	0x3eea8cbd	0.458105
8	0x3f10e08e	0.56592643
9	0x3f52650a	0.82185423
10	0x3f3aa77a	0.729118
11	0x3f5a31e3	0.8523237
12	0x3eeb610b	0.45972475
13	0x3f249882	0.6429521
14	0x3f081a19	0.5316482
15	0x3f2788ba	0.65443003
16	0x3ee92ada	0.45540506
17	0x3f544cf0	0.829299
18	0x3f240a2a	0.6407801
19	0x3f1807e9	0.5938707
20	0x3f03fd59	0.5155845
21	0x3f15344b	0.5828292
22	0x3f27b4bc	0.65510154
23	0x3ec7339e	0.38906568
24	0x3f732921	0.9498463
25	0x3f0cbe0a	0.54977477
26	0x3f058fe1	0.52172667
27	0x3ec55577	0.38541767
28	0x3ee206c2	0.4414578
29	0x3f4a2c79	0.7897411
30	0x3f20a790	0.6275568
31	0x3eae8be9	0.34091118
32	0x3efa3948	0.48871827
33	0x3f2ce080	0.6753006
34	0x3ec1d4fa	0.378578
35	0x3f4c908f	0.7990808
36	0x3f2f076e	0.6837071
37	0x3f0c52db	0.5481393
38	0x3ef91f5e	0.48656744
39	0x3f078eac	0.52952075
40	0x3f2e355a	0.6805016
41	0x3f26029d	0.6484774
42	0x3f6e56f9	0.9310146
43	0x3f4c4406	0.79791296
44	0x3f420936	0.75795305
45	0x3f0ccecb	0.5500304
46	0x3f0fdccb	0.5619628
47	0x3f0c9c0f	0.54925627
48	0x3eef2ac8	0.46712327
49	0x3f035882	0.5130693
50	0x3f08ce87	0.53440136
51	0x3f03e019	0.5151382
52	0x3f48938b	0.7835013
53	0x3f236c3f	0.63837045
54	0x3f0589ce	0.521634
55	0x3f13fa66	0.5780395
56	0x3f26bba7	0.65130085
57	0x3ed4d557	0.41569015
58	0x3f359c96	0.70942056
59	0x3ef38258	0.47560382
60	0x3f468f87	0.77562755
61	0x3eae371a	0.34026414
62	0x3f039927	0.51405567
63	0x3f3f72fb	0.7478482
64	0x3f0dc4fb	0.55378693
65	0x3f08c38e	0.5342339
66	0x3f2956cb	0.6614806
67	0x3f15539a	0.5833069
68	0x3f333912	0.7000896
69	0x3f0840a2	0.5322362
70	0x3f0e8001	0.5566407
71	0x3f0fcceb	0.56172055
72	0x3efaa041	0.4895039
73	0x3f0b9408	0.5452275
74	0x3ef6a35d	0.4817151
75	0x3ebef730	0.37297964
76	0x3f5407f3	0.8282463
77	0x3ee82d33	0.45346984
78	0x3f0d8ddf	0.55294603
79	0x3f10eab7	0.56608146
80	0x3f206e3e	0.62668216
81	0x3f04a97f	0.5182113
82	0x3f161c43	0.58636874
83	0x3efafde4	0.49021828
84	0x3ebf26ff	0.3733444
85	0x3f1f7ec7	0.6230282
86	0x3f2c894c	0.67397
87	0x3f0ac0b5	0.542003
88	0x3f115423	0.5676901
89	0x3f1fdda2	0.6244756
90	0x3f1f862f	0.6231412
91	0x3f007439	0.5017734
92	0x3ec35430	0.38150167
93	0x3f0877b9	0.5330768
94	0x3ef42a8f	0.4768872
95	0x3f26accb	0.6510741
96	0x3ef1d76a	0.4723466
97	0x3f13918f	0.5764398
98	0x3f44e995	0.7691892
99	0x3eed4b7f	0.4634666
100	0x3f47add3	0.7799961
101	0x3f286989	0.65786034
102	0x3f3a3283	0.72733325
103	0x3f5b7696	0.8572782
104	0x3f4033ac	0.75078845
105	0x3f0fafa0	0.5612736
106	0x3f2280fb	0.6347806
107	0x3f10d60c	0.5657661
108	0x3f0274a2	0.5095922
109	0x3f4250e2	0.7590467
110	0x3f27fa2b	0.656161
111	0x3ef93056	0.4866969
112	0x3ef6d7c4	0.4821149
113	0x3f206530	0.626544
114	0x3f0182d3	0.50590247
115	0x3f2ac84a	0.66711867
116	0x3ed90b14	0.42391264
117	0x3f1fba40	0.6239357
118	0x3f2ce094	0.6753018
119	0x3f14cc99	0.5812469
120	0x3f276480	0.65387726
121	0x3f2a699e	0.6656741
122	0x3ed739b0	0.420362
123	0x3f44940d	0.7678841
124	0x3f3db7d5	0.7410863
125	0x3f48855a	0.7832848
126	0x3f2696f1	0.6507407
127	0x3f42cd4b	0.760945
